==> Creating result directory ...
==> Loading test settings ...
==> Deciding torch device ...
==> torch device:  cuda
==> Seeding everything ...
==> Building dynamical system ...
==> Building cbf neural network ...
==========================================================================================
Layer (type:depth-idx)                   Output Shape              Param #
==========================================================================================
LipschitzNetwork                         [1, 1]                    --
├─Sequential: 1-1                        [1, 1]                    --
│    └─SandwichFc: 2-1                   [1, 512]                  266,241
│    └─SandwichFc: 2-2                   [1, 512]                  525,313
│    └─SandwichLin: 2-3                  [1, 1]                    515
==========================================================================================
Total params: 792,069
Trainable params: 791,045
Non-trainable params: 1,024
Total mult-adds (M): 0.79
==========================================================================================
Input size (MB): 0.00
Forward/backward pass size (MB): 0.01
Params size (MB): 3.17
Estimated Total Size (MB): 3.18
==========================================================================================
…
